…
Total Characters :  2877879
Total Vocab :  44
Total Patterns :  2877779
WARNING:tensorflow:From C:\Anaconda\envs\tensorflow\lib\site-packages\tensorflow\python\framework\op_def_library.py:263: colocate_with (from tensorflow.python.framework.ops) is deprecated and will be removed in a future version.
Instructions for updating:
Colocations handled automatically by placer.
_________________________________________________________________
Layer (type)                 Output Shape              Param #   
=================================================================
cu_dnnlstm_1 (CuDNNLSTM)     (None, 100, 256)          265216    
_________________________________________________________________
cu_dnnlstm_2 (CuDNNLSTM)     (None, 100, 256)          526336    
_________________________________________________________________
cu_dnnlstm_3 (CuDNNLSTM)     (None, 100, 256)          526336    
_________________________________________________________________
cu_dnnlstm_4 (CuDNNLSTM)     (None, 100, 256)          526336    
_________________________________________________________________
flatten_1 (Flatten)          (None, 25600)             0         
_________________________________________________________________
dense_1 (Dense)              (None, 44)                1126444   
_________________________________________________________________
activation_1 (Activation)    (None, 44)                0         
=================================================================
Total params: 2,970,668
Trainable params: 2,970,668
Non-trainable params: 0
_________________________________________________________________
Seed : 
" ng i've learned is that
i had to work harder and longer
be smarter and stronger
than the person righ "

t beside me
have the confidence and common sense
to know there's still something inside me
…
